Assignment 8/Lab 11/model_2000.pth (torch, 19265 bytes, 12 tensors)

Nnet.Hidden_layer_1.weight f4 [30, 2]
00000000: 3471 653c a260 e93e ee64 13bd a1c0 163f
00000010: 63ab 853e 669e 903e 054a 8c3e 0a1e 31be
00000020: b663 a5bd 2088 78bc fd84 17bf 83ee 293f
00000030: f7ee 963d 8e6b 37bf b48f 0dbf 2ae1 b4be
00000040: c02d 863b 0bbd a5be c492 2dbf ecb3 8cbe
00000050: 6b65 adbc 0d95 713e 09e9 833e 62ae 123f
00000060: 3b0c 05bf cdb8 aabe e172 05bf b703 90be
00000070: 4d0b 26bf 0135 283f a48a 04bf 3845 663e
00000080: 0cb4 0f3e db80 b6be f2f0 023f e280 283f
00000090: 13e2 aabe 3570 a6be b6f6 cabe 1a51 0ebf
000000a0: 8095 69be 1793 0c3d 6aa9 94be cfbf 2e3f
000000b0: 2171 b4bd 05c0 8dbe b856 31bf 0d5b 45be
000000c0: a389 213f 08b6 67be d1db 823e 0644 f53e
000000d0: 6ef0 febe 5b25 01bf d31b df3e f733 bf3e
000000e0: 7462 f7be aba1 283f 0b02 15bf d6c2 9d3d
0.0140040405 0.45581537 -0.035984926 0.5888768 0.2610732 0.28245848 0.27400222 -0.17296615
-0.08075659 -0.0151691735 -0.591873 0.66379565 0.07369798 -0.7164849 -0.552974 -0.35328037
0.0040948093 -0.3237079 -0.6780207 -0.2748102 -0.021166524 0.23592015 0.2576373 0.5729734
-0.5197179 -0.33344117 -0.52128416 -0.28127834 -0.64860994 0.6570588 -0.5177405 0.22487342
0.14033526 -0.35645184 0.51148903 0.6582166 -0.33375606 -0.32507482 -0.3964135 -0.555925
-0.22810936 0.034319963 -0.29035503 0.68261427 -0.0881064 -0.27685562 -0.6927295 -0.19273014
0.6310064 -0.22628033 0.25558332 0.4790346 -0.49792808 -0.50447625 0.43575916 0.37344334
-0.483173 0.65871686 -0.5820624 0.07703178

Nnet.Hidden_layer_1.bias f4 [30]
00000000: a7d6 03be 1c26 dd3b b91c 7e3e 58fc 343f
00000010: 3aba 923d 8f0e a13d 1aab 163f e43d 2ebf
00000020: 315e 9c3e d204 cf3e 611b 1e3f 157c f2be
00000030: 9c13 b43e aaf9 343f eaad 27bf e7e6 2ebf
00000040: 6bf1 a4be 08c7 b1be 9529 98be 60f6 763e
00000050: 93e5 4ebe ebd7 9f3e 02e0 18bf aa4c 4cbe
00000060: efdc 8c3e d573 133f 9dc7 8cbe 4652 273f
00000070: 103c d5be f404 bd3e
-0.12874852 0.0067489278 0.24815644 0.70697546 0.07164426 0.07864105 0.5885483 -0.6806319
0.30540612 0.40433365 0.61760527 -0.47360292 0.3517121 0.7069346 -0.65499747 -0.6832108
-0.32215437 -0.3472216 -0.29719225 0.24117422 -0.20204763 0.3121942 -0.5971681 -0.1995112
0.2751231 0.5759862 -0.27496043 0.65359914 -0.41647387 0.3691784

Nnet.Hidden_layer_2.weight f4 [30, 30]
00000000: 130f af3d 1e8b 18bd e3eb 3a3e 000f f43d
00000010: ddf9 7f3d 2b18 d23d 6bc3 3d3d 0972 3abd
00000020: efe4 e1bd 8521 cebd 2989 843c c273 c1bb
00000030: 41e6 08be e62a 873d 0002 dcbd 426f c0bd
00000040: 5c21 d0bd f719 7abc c555 9c3c fd54 0d3e
00000050: 4400 93bd 7fe2 d5bd 17c6 a43d c561 b3bd
00000060: e405 a93d 537f 3b3e 6be9 423c e2a4 043e
00000070: 13fe f2bd 5b65 2b3e 63ba 8f3c fc8e bd3d
00000080: 7201 a73d a475 e9bd 6d97 b03c 21ba 003e
00000090: f793 dfbd e7dd c03c 0b2a bebd 1d4d b7bd
000000a0: 44ca 56bd e836 46be 55e2 90bb cad1 58bd
000000b0: 9e05 9e3d db89 29be 0d60 273e f79a 883d
000000c0: 990f 0b3e ee7c c33d ea3a e23d 510f 27b9
000000d0: e845 f93d 58ad 8bbd 7b32 2d3e cd1d 6a3c
000000e0: d30f 153e 067d 15be 033a 6dbd b67b 2bbe
000000f0: b606 c5bd 379e 97bd a46a 8dbd 410f bcbd
00000100: 51fe 003e 77d5 e9bd 430e 8ebd 851f b23d
00000110: fa8e 9dbd 8fc7 3abd 2352 743c 6600 293e
00000120: d7e4 13be a492 25be b359 fbbd 9294 cabd
00000130: f130 3bbd 7c37 38bc ac7d 19be 882e 30be
00000140: 991e 0ebc 228a 123e 3519 e7bd 74d9 283e
00000150: bbc3 07be 1e94 243e 31ca fb3d 989d 3bbe
00000160: bbac febd eab1 a1bd 949d 633e 8e86 aebd
00000170: 43cf 3e3e 70e0 9fbc e43e 48be 96ee e73d
00000180: 6300 79bd 78bb 2dbe 09c4 0d3e c75d d0bd
00000190: 428e 7f3d 6b2d 503d 8a11 15be bce6 10bd
000001a0: f281 b8bc af73 8c3d b829 cabd 06fd 1bbd
000001b0: b362 d63d 8bc6 f3bd b5c0 d5bd 1f17 463e
000001c0: 89ba 143e 8433 cebd 1b72 90bd f7a0 813c
000001d0: c823 a9bd 86b7 bfbd 42a8 1abe 25eb 26be
000001e0: f70c 323e 9f36 cd3b 5e90 dc3c db83 223e
000001f0: 14dd 143e 3844 0a3d f5ba 7b3c 06f5 bbbc
00000200: cb78 103e 35ed 173e 1f38 fabd 7b61 f53d
00000210: f34d 5f3d ac58 eb3d ca7c 0abe 9c28 09bd
00000220: d044 d93d b5c7 8cbb 76f6 21be 87e5 8f3c
00000230: efc4 a6bb f41c 01bd c489 983d 4c3e be3d
00000240: c853 133e 4387 893c 02b2 253d 06b1 033e
00000250: 66fa 0ebe 710e 21bd 9518 023e 9f4a 253e
00000260: b16a 1d3e 5d7a fc3b 197b 2bbe 5565 353e
00000270: 3f46 3fbd 97aa 35be 48c7 2dbe 4d70 283e
00000280: 19da 13bd a3ed 6f3d 30f6 5bbd 03b5 c73d
00000290: c0d2 52bd b2b7 c53c 5300 3dbe ca59 8abd
000002a0: c92c 30bc 9cfc 15bc 00e7 fd3d d8f7 243e
000002b0: 37af e93a 1d28 ca3d 8a50 d8bd 27df 05be
000002c0: b5f4 00bd d16e 99bd 94fd b1bd 36cd 123d
000002d0: 48bb e7bc f1eb 933d 1b2f 00be f56d 27be
000002e0: 5805 ac3d 44e5 193e d15a 1d3e 7430 823d
000002f0: a795 0fbe 2765 40bd f5b4 2a3e efcf 1d3d
00000300: 111e e9bd 9d28 ecbc 001b a0bc 8433 213e
00000310: 7544 22be 4370 92bd c54c 773d 751a bd3d
00000320: cd03 6bbb 2f6f 743d 4ed9 07be e335 b93d
00000330: 0951 a1bd c7aa 2a3e 39a7 a33d 46ea 56bd
00000340: ad4f e6bc a8b4 af3d 2878 583e f445 f2bd
00000350: ece1 283e 4573 3d3e 66a2 613d d49b b03d
00000360: 8f47 20bd d02c 063d da57 0bbe 2c62 48be
00000370: 99b2 e4bd ac42 6b3c 35d6 ee3d 682a 02be
00000380: d9ef 223e c3e1 ad3c e1ce a2bb 49c3 debc
00000390: 4a4c 143e 5161 bfb9 eb61 bebd b8d4 0f3d
000003a0: 7b9b dbbc 2e66 233e 5014 8dbd 3cc5 a43d
000003b0: d791 b33c cbd9 1c3e 52ca bd3c 87ea eb3d
000003c0: 88f7 0c3e 7cab 433d 9c7c 053d 4075 d3bd
000003d0: bc73 bc3d f162 2c3e 5e48 c9bc a2ce 11be
000003e0: cde6 37bd 9137 16be 316c fdbb f776 61bc
000003f0: 4fcc 4a3d 1ffe 033e f978 a2bb 21b1 4cbd
0.08547797 -0.037242047 0.18254046 0.119169235 0.062494148 0.10258516 0.046328943 -0.04551891
-0.11029994 -0.10064987 0.016178684 -0.005903692 -0.13369085 0.06599979 -0.10742569 -0.09396221
-0.10162613 -0.01526498 0.019083867 0.13801952 -0.07177785 -0.10443591 0.08045595 -0.087588824
0.08253077 0.18310289 0.0118964715 0.12953523 -0.11864867 0.16737883 0.01754493 0.09255788
0.081545725 -0.11399391 0.02155658 0.12571003 -0.10916894 0.023543311 -0.09285363 -0.08950255
-0.05243899 -0.19356883 -0.004421512 -0.052934445 0.07715915 -0.16556494 0.16345234 0.06670182
0.13580169 0.09545313 0.11046393 -0.00015932067 0.12171537 -0.06820172 0.16913788 0.014289332
0.14556818 -0.14598474 -0.057916652 -0.1674641 -0.09620421 -0.07403224 -0.06905106 -0.09182597
0.12597014 -0.11417668 -0.06936314 0.08697418 -0.07693286 -0.04560047 0.014912161 0.16504058
-0.14442764 -0.1616922 -0.12272968 -0.09891619 -0.04570097 -0.011243697 -0.14989346 -0.1720525
-0.008674287 0.14310506 -0.11284105 0.16489202 -0.13258259 0.16072127 0.12294424 -0.18321836
-0.124352895 -0.078952625 0.2222808 -0.08521758 0.18633752 -0.0195162 -0.19555241 0.113248035
-0.060791384 -0.16966045 0.13844313 -0.101741366 0.062391527 0.050824564 -0.14557472 -0.035376295
-0.0225229 0.068580024 -0.098712385 -0.0380831 0.10468044 -0.119031034 -0.104371466 0.19344757
0.14524283 -0.100684196 -0.07053014 0.015823824 -0.08258778 -0.09361176 -0.15103248 -0.16300638
0.17387758 0.006262615 0.026924308 0.15870611 0.1453746 0.033756465 0.015364398 -0.022943985
0.14108579 0.14836581 -0.122177355 0.119814835 0.054517698 0.11491522 -0.13524166 -0.033485994
0.10608828 -0.004296268 -0.15816674 0.017565502 -0.0050893943 -0.031521752 0.07448152 0.09289226
0.14387429 0.01678813 0.040452965 0.12860498 -0.13962707 -0.039320413 0.1270469 0.16141747
0.15372731 0.0077050165 -0.16746177 0.17714436 -0.04669785 -0.17740856 -0.16970551 0.1644909
-0.036096666 0.058576237 -0.05370158 0.09751322 -0.051470518 0.024135444 -0.18457155 -0.06755407
-0.010752865 -0.009154465 0.123975754 0.1611017 0.0017828707 0.09870932 -0.105622366 -0.13073407
-0.03148337 -0.0749184 -0.08690944 0.035840236 -0.028287545 0.072227366 -0.1251797 -0.16350539
0.08399457 0.15028864 0.15366675 0.06356898 -0.14021932 -0.046971466 0.16670592 0.03852838
-0.11382688 -0.02882796 -0.019544125 0.15742308 -0.15846427 -0.071503185 0.060375948 0.09233562
-0.003586042 0.059676345 -0.13266489 0.09043481 -0.07876784 0.16666709 0.079908796 -0.052469514
-0.028114164 0.08579379 0.21139586 -0.11829749 0.16492432 0.18501003 0.055086516 0.08623472
-0.039130744 0.03275758 -0.13607731 -0.195687 -0.11166877 0.0143591575 0.116619505 -0.12711489
0.15911807 0.021225816 -0.0049685095 -0.027192729 0.14482227 -0.00036502865 -0.0929602 0.035114974
-0.026807537 0.15956947 -0.0688864 0.08045432 0.021920128 0.15317456 0.023167763 0.11519342
0.137663 0.047770962 0.03258954 -0.10325098 0.09201762 0.16834618 -0.02457064 -0.1423898
-0.044897843 -0.14669634 -0.0077338447 -0.013761274 0.04951125 0.12889908 -0.0049582687 -0.04997361

Nnet.Hidden_layer_2.bias f4 [30]
00000000: dce7 2abe 94e3 d93c 4c6b a5bd c0a4 84bc
00000010: 6ac3 ffbd e449 2b3e 6f75 58bc 1e63 5c3d
00000020: 37ef 293e 70d6 b13c c4bd e5bd 7b95 403e
00000030: 71a1 033e a903 17be 7adf 373d 6509 863d
00000040: f4a7 393e 8f37 203e 247a a6bd 9a10 c73d
00000050: 9713 113e 590b 733d ae0f cd3d 2044 e93d
00000060: 7448 1ebe 0800 39bd c29c a5bc 5a36 263e
00000070: e749 2a3e 09fe c43d
-0.1669001 0.026597776 -0.08077106 -0.01619184 -0.12488444 0.16727406 -0.013211592 0.053805463
0.1659516 0.021708697 -0.112178355 0.18807022 0.12854554 -0.1474749 0.04489086 0.065447606
0.18130475 0.15646194 -0.08128765 0.09719963 0.14167629 0.059336994 0.10012756 0.11389947
-0.15457326 -0.045166045 -0.02021635 0.16231671 0.16629754 0.09618766

Nnet.Hidden_layer_3.weight f4 [30, 30]
00000000: d4a4 0b3e 5e98 b33c 69d5 dfbd 08fa a23d
00000010: d6c6 1ebd b40e 81bd 3a85 07be f47f 0c3c
00000020: 1032 dcbd 4cb0 f53d 00e5 25be b9fa 13bd
00000030: 8af6 ec3d 8f79 de3c b816 21bd a7a4 c43c
00000040: 0f35 28bc 83ea 97bb 56d9 043d 16bb 043e
00000050: 6257 a73d 3e1e 8dbd 0734 aebd c9f5 8a3d
00000060: d0b7 1cbe 8412 02be 71d6 c1bd fdde 92bd
00000070: 10ca 293d 476c ca39 1bce 363e e8e3 b4bc
00000080: cb15 a1bd 77d1 18be d0d3 5d3d 91df 94bd
00000090: a1e6 d33c 1db7 c43b d13c 12be d57c b0bd
000000a0: a4e4 25be b3dd 4f3d c411 413d b7cc b03c
000000b0: 1e72 fabc 0b60 b5bd 3af2 6cbd dcf0 163e
000000c0: f926 e13d 5de2 32be 65bc 9f3a bda4 553d
000000d0: f6b0 edbd e78c bc3d a3fc 2ebe a9c0 483d
000000e0: 0c6e aabd 7d55 0bbe d4df df3d ea9c cd3c
000000f0: 5905 263e 0330 d8bd 23b5 b5bd f347 903d
00000100: 17b3 3ebc 9205 0abe ec9c 2a3e 3fc9 063e
00000110: e1f2 c83d ae3c 313e d6ae 28be 67ca eb3d
00000120: ee15 a03c 6a17 febd 2809 083e e278 9ebc
00000130: f0c2 ce3d 5d9e 17bd 7a42 16be ebb4 253e
00000140: 8cbb d33d ef06 123d 5ca0 1bbe 2c41 143e
00000150: 8cfa 233d 1ae4 39be f634 833c efc1 cebd
00000160: b149 de3d 805e a23d 0f3d d73d f821 d53d
00000170: 116a 973d 0b72 69bd f838 98bd 142a 9ebd
00000180: 123d 8bbd 5fb4 88bd 26c6 b33d ce4f 8cbb
00000190: 1113 c03d 8c0e 8b3d 0db0 0abe c603 ffbc
000001a0: f013 afbd 1c81 2f3e ff23 8f3d 3e09 103e
000001b0: cbf8 d63d 9e9a 67bd 50a8 8a3d d408 863d
000001c0: 7d25 0dbe 43e6 06be fc97 94bd f824 0d3e
000001d0: 880a 413e 5522 e4bd c7d4 19be eda8 223e
000001e0: 2a77 b73d 0e15 d039 8ea5 2fbd 15e3 39be
000001f0: afde 633c d88b 1bbe 6d22 86bd 2aed 3abe
00000200: fb39 06be bfa5 c6bd 909d f5bd cf53 e83c
00000210: 5530 81bd 5103 1c3e 3974 163d b78d 9b3d
00000220: f860 3d3e 2ea1 323e b061 0bbe 464a cebc
00000230: 3bb4 3abd bb56 393c 55fb 823d 7d5d 993d
00000240: 807d e8bd 4545 bb3c 3f8c f33c 0f09 12be
00000250: 0ded 88bc d8f6 f93d 39d5 013d 5269 1bbe
00000260: d8b5 8b3d 8ef0 0fbe 2e77 1f3e 5b17 1fbd
00000270: 873c 1ebe 76a8 2cbe 242c 1d3e 1f82 30ba
00000280: e743 2b3e 27f4 ba3d 07e6 e3bd e5fc 21bd
00000290: 9f72 813d d0c1 e53d a941 52bd 8b31 21be
000002a0: 0dd5 dfbd 6ea0 ef3d 45ee e6bc ef00 15bc
000002b0: b4bb 0e3e a23d 0cbe bae1 393d 235e 23be
000002c0: 5552 013e 6355 06be 8113 923d 8543 183d
000002d0: e91b 2a3e 3744 7cbd 971d 10be 1ce5 9abd
000002e0: 27ef ac3c d3eb e7bd 22c1 13bd 63ba cebd
000002f0: 6d8b 98bd cdee a83c 1c08 933d 5497 3e3e
00000300: 7e52 203d 23af b13d 07b7 f6bc 69d8 dabd
00000310: 9a17 86bd b941 d7bd 8e9c 353e b240 f0bd
00000320: 2668 04bd 00ce cc3a 05ab 403e b4ff 0b3e
00000330: 7f33 c83d 866b 9c3c 2fe7 31bd 755a 31be
00000340: 41da 3dbd 7c2b 0c3d f37d 503c d9a9 a2bd
00000350: 8d3d 5c3d bbca 38bd 5ac5 d2bd bedc 06be
00000360: 0368 e33d 38ea 7fbd 5a97 ef3c 5494 1a3e
00000370: 0000 153e 2ace 85ba 91e9 16be a8b3 183e
00000380: e6a9 023e 1599 8bbd 61c7 9c3d f200 35bd
00000390: 8662 113d d0f9 323e 0b60 793d c4b6 d93d
000003a0: 60b2 aebd e04c f0bd 7253 703d c274 79bd
000003b0: a21a 103e e29a a2bd 3c9f c23d ba57 9c3b
000003c0: c2e1 983d b113 c3bd 2ea3 2f3d 9acd cc3d
000003d0: 7c57 c13d da7d 3dbe 1e9d 30be da90 c3bd
000003e0: 5875 c13d 5162 6bbd f818 0dbe af01 2fbd
000003f0: a3c7 83bb 5399 f63a a7f3 c1bd 5a4c e8bd
0.13637096 0.02192324 -0.10929377 0.07957846 -0.038763843 -0.063016325 -0.13234416 0.008575428
-0.10751736 0.119965166 -0.16200638 -0.03612778 0.11570461 0.027157573 -0.039328307 0.024004294
-0.010266556 -0.0046361103 0.03243383 0.12961993 0.08170964 -0.06890534 -0.08506017 0.06785161
-0.15304494 -0.12702376 -0.094647296 -0.07171438 0.041452467 0.00038609115 0.1785206 -0.02208133
-0.07865485 -0.14923654 0.05415708 -0.072692044 0.025866808 0.006003274 -0.14281012 -0.0861756
-0.162005 0.05074854 0.047136083 0.02158199 -0.030571993 -0.08856209 -0.057848193 0.14740318
0.109937616 -0.17469163 0.0012186883 0.05215906 -0.11606018 0.092065625 -0.17088561 0.04901186
-0.08321771 -0.1360683 0.10931364 0.025099237 0.16212977 -0.105560325 -0.0887244 0.07044973
-0.011639378 -0.13478687 0.16661423 0.13162707 0.098119505 0.17308304 -0.16472945 0.115132146
0.019541707 -0.1240681 0.13284743 -0.01934475 0.10095775 -0.03701626 -0.14673796 0.16182296
0.10338506 0.035651144 -0.15197891 0.14477986 0.040033862 -0.1815342 0.016016465 -0.10095584
0.10853899 0.07928181 0.10509693 0.1040687 0.073932774 -0.056993525 -0.07432741 -0.077228695
-0.067987576 -0.06675028 0.08778028 -0.0042819744 0.09378637 0.06789884 -0.1354372 -0.031129729
-0.08548725 0.17139095 0.069892876 0.14066026 0.10496672 -0.05654394 0.06770384 0.065446526
-0.13783832 -0.13173775 -0.07255551 0.13783634 0.18851674 -0.11139361 -0.15022574 0.15884753
0.089582756 0.00039688539 -0.042882495 -0.18153031 0.013908072 -0.15190065 -0.06549535 -0.18254533
-0.13108055 -0.09699582 -0.11992943 0.028360276 -0.06308047 0.1523564 0.036731932 0.07595389
0.18494022 0.17444298 -0.13611484 -0.0251819 -0.045582037 0.011312182 0.06395594 0.074885346
-0.11352062 0.022860179 0.02972996 -0.14261268 -0.016714597 0.12205285 0.031697486 -0.15176895
0.06821793 -0.14056608 0.15572807 -0.038840633 -0.15452777 -0.16861138 0.1534887 -0.0006733257
0.16725121 0.091285996 -0.111278586 -0.03954782 0.0632069 0.112186074 -0.05133215 -0.15741555
-0.10929308 0.117005214 -0.028189788 -0.009094461 0.1393879 -0.13695386 0.045381285 -0.15953879
0.12629063 -0.1311851 0.07132626 0.037173767 0.1661221 -0.061588492 -0.14073788 -0.075632304
0.02111013 -0.11324277 -0.036072858 -0.10094144 -0.07448468 0.020621682 0.07179281 0.18612415
0.03914117 0.08675983 -0.030116571 -0.10685808 -0.065474704 -0.105105825 0.17735502 -0.1173109
-0.032325886 0.0015625358 0.18815239 0.13671762 0.09775447 0.01909424 -0.043433364 -0.17319663
-0.04635072 0.034221157 0.012725341 -0.07942552 0.053769637 -0.045115214 -0.10291548 -0.13170144
0.11103823 -0.062479228 0.029246975 0.15095645 0.14550781 -0.0010208536 -0.14737536 0.14912283
0.12760124 -0.068163075 0.07655216 -0.044190355 0.03549435 0.17478108 0.06088261 0.10630563
-0.08530116 -0.11733413 0.05867333 -0.060902365 0.1407266 -0.07939698 0.09503028 0.0047712
0.07464935 -0.0952524 0.04288023 0.10000153 0.094405144 -0.1850504 -0.17247435 -0.095491126
0.0944621 -0.05746681 -0.13779056 -0.042726215 -0.0040216013 0.0018814005 -0.09470301 -0.11342688

Nnet.Hidden_layer_3.bias f4 [30]
00000000: 0c14 31bd 1473 1fbd 7c8b 43bd 1237 2abe
00000010: 59f9 103e b4e4 b83c aa21 3f3d ba68 353d
00000020: 5241 283e dfe1 7cbc 6742 2f3e ff9b afbd
00000030: d714 82bd 91d3 e7bd 85fc e3bd e95f b9bc
00000040: 3545 153e fb2b 1cbe cf7d 06be 1a0b 463d
00000050: 6edd e2bd 8cd1 1c3e 8a0d 24be 25de 3a3e
00000060: ef3b ea3a 411f cdbd 9b30 4abd 4409 6b3d
00000070: f94d f63d 74b6 a5bd
-0.04323201 -0.038928106 -0.047740445 -0.1662257 0.14157619 0.022569992 0.046662964 0.04428933
0.16431168 -0.015434711 0.17115174 -0.08574676 -0.06351631 -0.1131965 -0.11132149 -0.022628741
0.14577182 -0.15251152 -0.1313393 0.04835043 -0.110773906 0.15314311 -0.1602079 0.18248804
0.0017870645 -0.10015727 -0.04936276 0.057381883 0.12026591 -0.08091441

Nnet.Hidden_layer_4.weight f4 [30, 30]
00000000: be98 b63b 19ff 23be de7d 16be 1cea a13d
00000010: 4006 c4bd 9b45 61bd 8c67 e1bd fe7b 013e
00000020: 4a5d d4bd c168 143d ea6c 033e b5e1 833c
00000030: 819c e6bb 048a be3d 1639 41bd 30dc 65bc
00000040: 232a a5bd f6b5 9e3d aa89 b4bd 3936 f6bd
00000050: 70d6 95bd 7c0d 073e cd0f ac3d 5ff4 1dbe
00000060: 0f28 72bd e9f1 24bd 8052 f23d 08ff 27be
00000070: f46c c73d 7193 a0bc aec0 0b3e 29b9 223e
00000080: 21a8 203e 5ef5 87bd 1e3c 2d3c bd6c 713d
00000090: f9b4 04be 9880 333e 42a1 dabd d6be 6fbb
000000a0: af67 7dbd a3f0 3d3a 5e41 693d 0d58 91b9
000000b0: d5cc d4bd b2d2 193b f368 333e 3118 52bd
000000c0: 3e0b 1b3e a85a 843d a463 86bc 4b73 893c
000000d0: 7b86 2e3e ff42 283e 7c19 21be 1484 c53d
000000e0: 6163 dfbd c65f 073d f7f7 113e 93e9 9dbd
000000f0: 8a4f d63a aa2c 3dbd eb65 653d 385a 013e
00000100: 61f4 e5bd 625b f9bb f0d4 de3b 1989 753d
00000110: 8f05 d6bd b7cd fbbd f6b2 243e d77d 10bd
00000120: 4352 e8bd 51df 413d f730 4b3d 0955 b8bd
00000130: 134d ee3d 8e47 183d f164 33bd a156 023e
00000140: 8286 cc3d 81b5 b03d 7b52 41be d31a 19be
00000150: 61a0 863c 07e5 8f3d 1a31 c13c f6e5 03bc
00000160: b6f7 2fbe 2d8c 3fbd 5a84 bebd 3c00 bdbd
00000170: 93b0 a83b c247 5cbd 72c6 25bd 8d99 023e
00000180: 9167 0bbb 622c d43d 1222 9abb c9ca 1e3e
00000190: d49f 043d 6ca3 993c a6ee 563c eb4b 143e
000001a0: 4f1d 0b3e 6490 62bd 0054 2bbe 8e7b 84bd
000001b0: 0a2f 1ebe 7d72 eabc d9f9 27be d812 f63c
000001c0: af0a 20bb 00fb 933d 529e e8bc 6efd a3bc
000001d0: 6ac0 9f3d 804e 61bd c568 22be ddb8 81bc
000001e0: 7cb5 9d3d 66b8 58bc 82ba 243e 4c69 243e
000001f0: 239a 86bd 34c3 30be 3aec 0fbe 80ab 9f3d
00000200: 4f42 153e 6547 09be e616 bcbd 8fe8 9cbc
00000210: a8cb 0e3e 66c4 b6bd 73f6 51bc 5660 eabb
00000220: 749f 0cbe 1484 1ebe 7962 b63c 5fff 163e
00000230: 1826 8dbd 333e ce3d 1318 22be e1cf 02be
00000240: 2f27 a43c 8ab0 743d 4b30 8abd 233b 38be
00000250: ceb7 a7bd 00d3 dc3d 11b4 ebbd bb84 183e
00000260: a253 5f3c f626 803d 68bf 683b bb41 11bd
00000270: 74e8 8a3d 9b49 333d 368d fd3d f32a 29bd
00000280: 4e8e 333e 6404 02be 8cd4 a43d 6c98 c1bd
00000290: 6be8 793d b266 44bd 9ee6 fe3d 42ec 8bbc
000002a0: 44f5 3dbd 8414 2b3e 4a97 b93d 2126 353d
000002b0: 7b28 83bd 6e95 0c3e 3231 a03b 125f 123d
000002c0: e300 59bd 20c8 36be 2ec7 06be a79c 64bd
000002d0: d837 9ebd 8960 e5bd 15cd d1bd 0a9d cebc
000002e0: c86e cc3b 4752 7f3d 3ee7 91bd 381a 8bbd
000002f0: 74fd 963d c798 bfbd 90d2 7c3b 8119 31be
00000300: a5b4 10be d136 3fbc 1300 42bc d1b7 13be
00000310: b46d 923c 69f4 31be 626a 063e 39aa 1dbe
00000320: fa7d 32be aa00 1f3d d5a0 b9bd 4f65 febd
00000330: 8a3d 0a3e 8579 2dbe 6b31 30bd 42b5 153e
00000340: 7a4b 313e 2ed2 ca3d 1848 11be 621e ccbb
00000350: 5c29 803d 2eea 55bd e825 e43d 4150 1d3d
00000360: 1c5f 01be 8b4c 10be c85c 90bd b8ac 7fbc
00000370: 31b7 08bd f76a bc3d 12f2 033c 9475 843d
00000380: 0987 ae3c ddfe d4bc 9990 9a3d 6a68 26be
00000390: 0fe2 4a3c db8b 09be 1196 293e 5044 f4bc
000003a0: 1683 ce3a d68f c4bd 3c34 2d3e 3f92 e0bd
000003b0: 12e0 b6bd 12ab 0d3d 2489 8f3d 5e5e 49bd
000003c0: fc79 de3c 67de 15be a83b 2b3e 2905 31be
000003d0: 8b8e 013e 937e 03be 5eb2 20bd 0dfb f3bd
000003e0: 8e12 92bc 7d45 c03d cc0a b3bd f2a4 933d
000003f0: 68cf 343d b31d 9fbb f868 c23c 9456 03bd
0.0055724075 -0.16015281 -0.14696452 0.07905981 -0.095715046 -0.05499802 -0.11006078 0.12644956
-0.10369356 0.036232714 0.12834516 0.016098836 -0.0070376997 0.09303668 -0.047173582 -0.014029548
-0.080646776 0.0774955 -0.0881532 -0.12022061 -0.07316291 0.13188738 0.08401451 -0.15425251
-0.059120234 -0.040269766 0.11832142 -0.1640588 0.09737578 -0.019601556 0.1364772 0.15890945
0.15689136 -0.06638597 0.010573415 0.05894159 -0.1295966 0.17529523 -0.10675289 -0.0036582253
-0.06186646 0.00072456355 0.056947105 -0.00027722158 -0.10390631 0.0023471531 0.17520504 -0.051292602
0.15141007 0.06462604 -0.016404934 0.016778609 0.17043488 0.16431807 -0.15732378 0.096443325
-0.10907627 0.03305032 0.14254747 -0.07710566 0.0016350609 -0.046185173 0.0560054 0.12632072
-0.11228252 -0.0076097706 0.0068002865 0.0599452 -0.10450279 -0.12295096 0.16083893 -0.03527626
-0.11343815 0.04733211 0.049607243 -0.09000594 0.116357945 0.037177615 -0.043797437 0.12728359
0.09986593 0.08628369 -0.1887912 -0.14951639 0.016433896 0.070261054 0.023582984 -0.008050432
-0.17184338 -0.04676454 -0.09302588 -0.0922856 0.0051480024 -0.05377937 -0.040472455 0.12753887
-0.0021271447 0.10360028 -0.0047037685 0.15507044 0.032378986 0.018754683 0.013118422 0.14482085
0.13585399 -0.055313483 -0.16731262 -0.06468879 -0.15447631 -0.028619045 -0.16403903 0.030038282
-0.002442043 0.07225609 -0.028395806 -0.020018306 0.07800372 -0.055006504 -0.15860279 -0.01583522
0.07700631 -0.013227558 0.16086772 0.16055793 -0.06572368 -0.17261964 -0.14054957 0.07796383
0.14576076 -0.13406141 -0.09184055 -0.019153861 0.13944876 -0.08924179 -0.012815106 -0.0071525974
-0.13732702 -0.15480071 0.022263752 0.14745854 -0.068920314 0.10070457 -0.15829496 -0.12774612
0.020038215 0.059738673 -0.067474924 -0.17991309 -0.08189355 0.107824326 -0.11508954 0.14894383
0.013630779 0.06257431 0.0035514478 -0.035463076 0.06782618 0.043771368 0.123804495 -0.041300725
0.17534754 -0.12696987 0.080483526 -0.094529 0.061012667 -0.0479495 0.124463305 -0.01708043
-0.04637648 0.16707045 0.09062059 0.044225816 -0.064042054 0.13728878 0.004888677 0.035735197
-0.05297936 -0.17849779 -0.13161919 -0.055813458 -0.07725495 -0.11200053 -0.102441944 -0.025221366
0.006238792 0.062334325 -0.07124184 -0.0679211 0.07372561 -0.09355312 0.0038577653 -0.17294885
-0.1413141 -0.011670784 -0.011840838 -0.14425589 0.017874576 -0.17378391 0.1312652 -0.15396966
-0.17430869 0.038818993 -0.090638794 -0.12421667 0.13500038 -0.16940887 -0.04301588 0.14619926
0.17313948 0.0990337 -0.14187658 -0.006229208 0.06257889 -0.052225284 0.111400425 0.038406614
-0.12633938 -0.14091699 -0.070489466 -0.015605144 -0.03337783 0.092000894 0.0080533195 0.06467739
0.021304624 -0.026000435 0.07547111 -0.16250768 0.012382998 -0.13432257 0.16561152 -0.02981773
0.0015755619 -0.09597747 0.16914457 -0.10965394 -0.08929457 0.034586973 0.070085794 -0.04916226
0.027157776 -0.14635621 0.16721976 -0.17287125 0.12652032 -0.12841253 -0.039232604 -0.119131185
-0.017831113 0.09388254 -0.08742294 0.07209195 0.04414311 -0.0048558353 0.023731694 -0.03206499

Nnet.Hidden_layer_4.bias f4 [30]
00000000: fe4e 543d d3f9 293e a1c9 313e 8d36 103d
00000010: 748b ee3b 1091 3ebd 7eaa b73c 105e 993d
00000020: 3316 0c3e fcc0 1fbe da28 c33c 3dcc edbd
00000030: 40b9 b53d a908 a5bd e035 1ebd 03d3 a43d
00000040: 4169 13be 9456 90bd fd35 e4bd 5e7a 34be
00000050: 0528 0a3e 32f9 ee3d 54a4 0f3e 1e32 c0bc
00000060: 64c0 8e3c 4625 b23d a495 33bb 1204 11bd
00000070: 99f6 25be 3451 253e
0.051833145 0.16599207 0.17362072 0.035208274 0.0072798077 -0.04652506 0.022420164 0.07488644
0.13680343 -0.15600961 0.02382319 -0.11611221 0.08873224 -0.080582924 -0.038625598 0.0804806
-0.1439562 -0.070477635 -0.1114311 -0.17624804 0.13491829 0.11668624 0.1402753 -0.023461398
0.017425723 0.086985156 -0.0027402425 -0.035404272 -0.16207351 0.16144258

Nnet.Hidden_layer_5.weight f4 [30, 30]
00000000: 8f46 943d 1b3e a53d 699a 6bbd 5ba5 ebbd
00000010: 4a9f f1bd debc bcbd a211 05be 836c 113e
00000020: 58e0 12be d7fb 253e dd54 693d 2d56 0cbe
00000030: 1f92 26be e9fb 1abe 1325 013e 7f35 09be
00000040: 1e1e 983d db84 e5bb 2825 3f3d aff5 cb3d
00000050: 3ad3 cabd 40a8 c4bd 7fe1 a63c cab3 c93d
00000060: 9bb2 233e fbde 173e 7aa8 12be 1c34 c6bd
00000070: c18d f73d bd1f 323e 80f1 023e 18b0 603d
00000080: ea55 af3c 2b55 1ebe 5ebe 093d 4d56 7c3d
00000090: e6c5 073c d154 2a3e 31d8 2c3d 5f58 adbd
000000a0: f9ed d13c ee02 6e3d 45ee 1b3d 77e2 69bd
000000b0: 4cf2 00bc bbab 853d 23bc af3c 89aa 01bd
000000c0: a768 1abe 253e 2fbe f642 0dbd 5d26 3cbd
000000d0: 8b89 5b3d 1733 1f3e bc15 053d c4f9 d93c
000000e0: 8d01 0e3e da83 19be cd9f 963c c0e4 16be
000000f0: 1682 1abe 42ad 11be 3d0e a53d 6563 e43d
00000100: deb9 803d 8b07 ccbc 5462 6ebd 3ffa c83b
00000110: 0db5 9b3b 82b2 2c3e 3b68 74bd 9686 043e
00000120: fad6 263c f99a 64bd 086b d53d 301c e13b
00000130: a9d7 f9bc 89aa d9bd 3612 2cbe a0fa 21be
00000140: 6d93 8c3d 0a19 083e 7298 bfbc 4ee3 e1bd
00000150: 6b4e b6bd 6ca7 a5bc 55f3 88bd a9e3 b83d
00000160: 79d5 193e 688c 293e ecf6 57bd 37df 833d
00000170: 47da bdbc de08 aebc 13be a73d b4ce a7bd
00000180: d020 49bd 57be 423e 2930 343e 3bf8 17be
00000190: fcdc fa3c 09f4 ff3d 3851 bd3b 9884 1c3e
000001a0: 7d73 09be 41ab 5e3d 2465 82bc 0517 d2bd
000001b0: 3e02 c0bd c4a9 0c3e fa38 e1bd 3be3 3bbe
000001c0: ca8b 10be 8153 113c 379d 7cbd e1d9 163d
000001d0: 4911 0abe dae9 a43d 484a 8a3d c95b d33c
000001e0: c3f8 27be 5e9f 893d 6153 903c d7e1 04be
000001f0: 635f 1a3d 8726 89bd 7795 b8bd e392 133e
00000200: c38d 4cbd eed3 2c3e 527b 823b da87 02be
00000210: e1ae 11be cc01 233e 79bc 06bd 6bd4 a3bc
00000220: 5f0c fdbd b908 c4bd cb57 4ebd 9429 0abe
00000230: 91a7 bcbd c93b fa3c 1a18 293e 2ee3 22bd
00000240: 7fb1 7fbd f1c9 a93c 8e39 593d 2fe2 d2bd
00000250: ef3f 1a3e 920c 203e 5d84 1e3d f813 1f3d
00000260: 3ac4 09be a1bf 5e3c 4234 59bc 118c 5c3d
00000270: c3e0 c03d c651 813d 2c83 af3d 9773 8f3b
00000280: b2c7 aebd 1bdb 0bbd c6a4 e6bd d8d0 2ebe
00000290: 65ad 023d 1be5 053e d0dc 28be 1a91 fa3d
000002a0: 52c0 06be 4386 5dbc 0cfd e13d 8d78 cbbd
000002b0: 13ee 823c fe7c 263e ef44 27bd d4d4 363d
000002c0: f473 213e c0ca 35bd b97b e23c ca72 143e
000002d0: bbe3 0cbe 71f9 10be 20c4 093e 154b 21bd
000002e0: 6ada 023d 5fa9 2dbd 2ed9 7fbd 496a fb3c
000002f0: 8b68 19be 5271 48bd 4995 f5bd c56b 633d
00000300: 0c42 d63b 2660 9dbd afed 3dbe 6c1b 1f3e
00000310: 6da2 973d 32f1 52bc 0d9a 0abe 9635 a3bc
00000320: bf03 2c3d a490 8a3b 6788 dd3d 29f0 d4bd
00000330: 0888 36be b564 603d da15 053e 7dba a2bd
00000340: f3fc 85bd 16c0 2cbe 0c79 f23d fecb 1abe
00000350: a562 ccbd b098 d0bd 3f63 18be fd68 213d
00000360: 43d8 0c3e b4dd e1bd 3bf9 f73d e97d 353d
00000370: c9dc c0bd c36c 303e 053d 9d3d 8b22 fdbd
00000380: bef7 ddbd 8b29 32be e317 f1bb d66e 1c3e
00000390: 068e eebd 6e73 993d 892a 183e 5bf9 213c
000003a0: 9ad9 f7bd 418c 98bc 9a82 dd3d 8ef4 17be
000003b0: fd07 76bd fbe7 98bc 1cbf e3bd be83 163e
000003c0: e5c1 e7bd 32ef 13be b636 36be c4b7 95bd
000003d0: 3931 1b3e d01b cabd fe89 00be c199 b43c
000003e0: 23ed b2bd ff9d dd3d 2b4e ed3d cf94 403e
000003f0: e012 363d 3d02 bbbd 9419 28be de70 af3d
0.072400205 0.08068486 -0.057520304 -0.115061484 -0.1179796 -0.09215711 -0.12995008 0.1420155
-0.14343393 0.1620935 0.056965698 -0.13704748 -0.16266678 -0.15135159 0.12611799 -0.13399313
0.074276194 -0.007004363 0.046666294 0.0995897 -0.099035695 -0.09602404 0.020371197 0.09848745
0.15986101 0.14831154 -0.14322081 -0.09677908 0.12087584 0.1739492 0.12787437 0.054855436
0.021403272 -0.15462177 0.033628814 0.06160574 0.008286929 0.16633917 0.042198364 -0.08464121
0.02562617 0.058108263 0.03806903 -0.05710074 -0.007870268 0.065268956 0.021452015 -0.031656776
-0.15078984 -0.1711355 -0.034487687 -0.045935024 0.053597968 0.15546833 0.03249143 0.026608355
0.13867779 -0.14991704 0.018386746 -0.14735699 -0.15088686 -0.14226249 0.08059356 0.111517705
0.06285451 -0.02490594 -0.05819924 0.0061333473 0.0047518075 0.1686497 -0.059669714 0.12941965
0.01018309 -0.055811856 0.10420805 0.0068698153 -0.030498343 -0.1062823 -0.16803822 -0.15818262
0.06864057 0.13290802 -0.023388121 -0.11029683 -0.08901676 -0.020221435 -0.06687037 0.09027798
0.1502284 0.16557467 -0.052725717 0.06439059 -0.023175372 -0.021244463 0.08190551 -0.08193722
-0.049103558 0.19017921 0.17596497 -0.14840786 0.030622952 0.12497718 0.0057775043 0.15284956
-0.13422962 0.05436254 -0.015917368 -0.10258297 -0.09375428 0.13736635 -0.109971955 -0.183484
-0.14115825 0.008870007 -0.06167337 0.03682888 -0.13483156 0.08052416 0.06752449 0.025800603
-0.16403489 0.0671985 0.017617883 -0.12976776 0.037688624 -0.06696802 -0.09012883 0.14411502
-0.049939882 0.1687772 0.003981986 -0.12747136 -0.14226867 0.15918654 -0.032894585 -0.01999875
-0.12355875 -0.09571976 -0.050376695 -0.13492423 -0.09211648 0.030546086 0.165131 -0.039767437
-0.062425133 0.020726176 0.053033404 -0.10297047 0.15063451 0.15629795 0.03870045 0.038837403
-0.1345376 0.013595493 -0.013257088 0.053844515 0.0941787 0.06314425 0.08569941 0.004377793
-0.085341826 -0.034144502 -0.11261897 -0.17071855 0.031903643 0.13075678 -0.16490483 0.12234707
-0.13159302 -0.01352078 0.11034593 -0.099351026 0.015982663 0.16258618 -0.040837225 0.044636562
0.15766889 -0.04438281 0.027646886 0.14496914 -0.13758747 -0.14157654 0.13453722 -0.039378244
0.031946577 -0.042397853 -0.062462978 0.03069033 -0.14981286 -0.048936196 -0.119913645 0.0555227
0.006538635 -0.076843545 -0.185477 0.15537804 0.07404027 -0.012874888 -0.13535328 -0.019923013
0.04199576 0.0042286683 0.10817032 -0.103973694 -0.1782533 0.05478354 0.12996617 -0.07945726
-0.06542387 -0.1687015 0.11839494 -0.1511688 -0.099797525 -0.10185373 -0.1488161 0.039406765
0.13754372 -0.11028615 0.12108084 0.04430953 -0.094171114 0.1722899 0.07677654 -0.12360104
-0.10838269 -0.1739866 -0.007357584 0.15276656 -0.116481826 0.074927196 0.14859976 0.009886111
-0.12102051 -0.018621566 0.10815926 -0.14839384 -0.060066212 -0.018665304 -0.111204356 0.14698693
-0.11316279 -0.14446715 -0.17794308 -0.07310441 0.15155496 -0.09868586 -0.1255264 0.022045972
-0.087366365 0.10821151 0.11587175 0.18806766 0.044451594 -0.09131286 -0.16416007 0.085664496

Nnet.Hidden_layer_5.bias f4 [30]
00000000: 3faa 83bc 13d4 64bd e811 233e 520e 283d
00000010: 3bc9 63bd 9653 043e 2f35 12be f0f7 9c3d
00000020: 6692 8abd f2dd 153e de8d a53d 9601 273e
00000030: 666f 923d 7aa3 593c 98e1 613d 0464 9fbb
00000040: 19c3 3bbd e592 07be 4ecd bbbc 2066 233c
00000050: 9bab cbbb b4a2 11be d55b d43d cef0 99bd
00000060: db57 e23d c562 2f3e cff0 80bd 7c48 f43d
00000070: f34d d93d f863 8fbd
-0.01607239 -0.055866312 0.159248 0.041029282 -0.05561183 0.1292251 -0.142781 0.07664478
-0.067662045 0.14635447 0.080837 0.16309199 0.07150154 0.013283605 0.055146784 -0.0048642177
-0.045840356 -0.1323963 -0.022925045 0.009973079 -0.0062155253 -0.14222223 0.10369078 -0.07516633
0.11051913 0.17127521 -0.062959306 0.11927888 0.10610571 -0.070014894

Nnet.Hidden_layer_5.bias f4 [2, 30]
00000000: b873 c4bd 6da8 fa3d 4ffd 3abe d1be afbd
00000010: 6521 063c 5d20 133e d42b 76bd 4921 f73c
00000020: 7c84 163e b6b9 97bd e019 153e 662a 28bd
00000030: 756b 0bbd 3e8e 623c 23fa 893d 32c8 bebb
00000040: 3e66 e8bd 5ffa 073e 2cf6 323d 6153 a8bd
00000050: a218 febd baf1 11be efcb 3dbe e7ac 253d
00000060: 20fa 9cbd ab00 e53d 3380 d8bc 43a4 273e
00000070: a656 123d 58b3 ff3d afc7 cfbd 974e f33d
00000080: ce31 5ebd 9ae4 163e aa42 9a3b 2da8 143d
00000090: 25a7 3c3d 36ab db3d a9e7 623d d7cd 173d
000000a0: 2e33 603d ef16 98bd a23a b0bd 2896 cc3d
000000b0: a0c6 a03c ce49 a3bd 6e7c 373e ee27 f13d
000000c0: 2846 803b 7505 efbd d3d2 8fbd 2424 293e
000000d0: 45cb b53d c2c6 24bd 1d2f 4a3d 4b37 a53c
000000e0: cbd1 05be fd9b b4bb b420 ce3d b8b6 293e
-0.09592384 0.12239156 -0.18260692 -0.08581317 0.008186673 0.14367814 -0.06010039 0.030167239
0.14698976 -0.074084684 0.14560652 -0.04105606 -0.034038026 0.0138278585 0.06737163 -0.005822205
-0.11347626 0.13279103 0.0436918 -0.08219028 -0.12407042 -0.14252368 -0.18534826 0.040448096
-0.07664895 0.11181768 -0.026428318 0.16371255 0.035727166 0.12485379 -0.101455085 0.11880224
-0.054246716 0.14735642 0.004707654 0.036293197 0.04605784 0.10726015 0.05539671 0.03706154
0.05473631 -0.07426249 -0.08604933 0.099895775 0.019625962 -0.079730615 0.1791856 0.11775194
0.0039146133 -0.11670963 -0.070226334 0.16517693 0.08876661 -0.040228613 0.049361337 0.020167967
-0.13068311 -0.0055117593 0.100648314 0.16573608

Nnet.Hidden_layer_5.bias f4 [2]
00000000: f63a c23c dcec 26be
0.023709755 -0.16301292
