Assignment 8/Lab 11/model_10000.pth (torch, 19265 bytes, 12 tensors)

Nnet.Hidden_layer_1.weight f4 [30, 2]
00000000: d694 3bbd 0045 183f b28b 10be 353a 2d3f
00000010: 548c 4e3e 89af b43e 1b5a 743e d53e 30be
00000020: 8c30 0ebe 04ea 13bd 2849 71bf 94dc 5e3f
00000030: 1679 033e c7be 56bf 03ad fcbe e79d f0be
00000040: 1306 dd3d c353 ebbe 8746 3ebf 364c b6be
00000050: 8a96 bdbc fcf7 693e 2e11 883e 9209 353f
00000060: fe96 12bf 4b9b c6be 5ba6 17bf 1297 a3be
00000070: 5e6d 75bf 054b 673f 7883 13bf 3b20 813e
00000080: 2958 2c3e 2023 c2be 658c 013f 93e5 2a3f
00000090: 203f 9ebe 7c6c cdbe 98d5 d4be a0b9 11bf
000000a0: bd86 84be 3e4d a53d 9e43 afbe d019 473f
000000b0: f644 cfba e89d 9ebe 75d9 50bf 0bdc 34be
000000c0: 651c 3f3f c1a7 b0be d192 7b3e 348b 0d3f
000000d0: 0d81 00bf c3fa 26bf 0a9c b73e 62f9 f13e
000000e0: 72c0 11bf 882d 2e3f a39a 40bf 273a bd3d
-0.045796238 0.59480286 -0.1411579 0.6766694 0.20170718 0.35290173 0.23862498 -0.17211469
-0.13885707 -0.036111847 -0.9425225 0.87055326 0.1283916 -0.83884853 -0.49350747 -0.4699547
0.10792174 -0.45962343 -0.74326366 -0.3560502 -0.023143072 0.22848505 0.26575607 0.7071773
-0.57261646 -0.38790354 -0.59238213 -0.31951195 -0.95870006 0.90348846 -0.5762248 0.25219902
0.16830505 -0.37917423 0.5060485 0.6675655 -0.30907536 -0.4012183 -0.4156921 -0.56923866
-0.25884047 0.080713734 -0.34231275 0.7777376 -0.0015813399 -0.30979848 -0.81581813 -0.17662065
0.746527 -0.34502986 0.24567725 0.5529053 -0.50196916 -0.6522638 0.35861236 0.47260576
-0.56934273 0.68038225 -0.75235957 0.09239607

Nnet.Hidden_layer_1.bias f4 [30]
00000000: 27cc fdbd 51bb 0a3c 6893 703e 04c1 333f
00000010: e440 bb3d 9e3a ce3d 82dc 0c3f 0fa1 2bbf
00000020: 03e7 903e 78bf 033f b65e 1d3f ec25 d2be
00000030: f23f e73e 4677 303f 6250 00bf 70c6 1ebf
00000040: 84f4 a5be b90f c8be 9270 8bbe 4133 8a3e
00000050: 7b12 36be 8a1e a43e 33e2 15bf 6a95 23be
00000060: 1b87 463e 4e92 123f 45d5 87be da31 273f
00000070: ce97 d3be 1f9f b93e
-0.123924546 0.008467511 0.23493731 0.70216393 0.09143236 0.10069774 0.5502397 -0.6704263
0.28301248 0.51464033 0.6147264 -0.41044557 0.45165974 0.68931997 -0.50122654 -0.6202154
-0.32413113 -0.39074495 -0.27234322 0.2699223 -0.17780487 0.3205455 -0.5854828 -0.15974966
0.19387476 0.57254493 -0.265299 0.6531044 -0.41326755 0.36254212

Nnet.Hidden_layer_2.weight f4 [30, 30]
00000000: 6954 303e 78af fbba 3e01 443e 228a df3d
00000010: 6d91 5f3e 7a24 fc3d 619a 56bd 59c3 50bd
00000020: 728c 3cbe 86c9 34bd 777e b43c 590a e93d
00000030: fc4e f7bd 1675 b43d 5912 4fbd d516 98bd
00000040: cf93 f2bd 62a5 093c 07ec 353c df5e e53d
00000050: 5eb7 65bd e2bc bcbd b77c 983d ce19 9fbd
00000060: d6c5 343d 73b6 433e ca1d 6dbb 53d9 0a3e
00000070: be06 77bd 4625 cc3e f2c5 733d d5b8 d73d
00000080: 5de4 ae3d 49b9 e0bd 9406 47bd ee89 183e
00000090: 0315 f0bd 7fc3 d73c 6b32 c6bd cbf7 1bbe
000000a0: 7171 46bd dfee bdbd 7130 b0bd 5af6 c3bd
000000b0: e16a 6b3d e1b9 2fbe e1be 203e 3e59 ba3d
000000c0: ad3e 093e 810f 9d3d 16f0 d13d 791b 403c
000000d0: 16d8 f13d 120e 85bd 6e2c 343e 2c4c 5f3c
000000e0: 5dd9 1c3e bdd6 16be 1630 93bd 38f1 92be
000000f0: 372c a1bd aaf6 85bd bdda 7fbd 10f1 b7bd
00000100: fb8b 7f3b a451 e8bc 7d31 d6bd a8eb b03d
00000110: 641c d9bd a62c 30be 83c1 713c 94c5 853e
00000120: 3255 85be 9786 61be 2fa3 e5bd 0f44 dabd
00000130: 36d4 39bd b6eb 143d 1f0f 1fbe e5c7 53be
00000140: f877 91bc c3a2 113e 3bbd e8bd 5536 193e
00000150: 8375 f3bd 83c7 243e 0b14 fb3d 34e1 3abe
00000160: 99a1 ebbd 2afb 59be 327d 0a3f cfea 8e3b
00000170: 3299 813e 56cc 07bd b21c e4be 623e dd3c
00000180: f836 4bbe b406 49be cd2f 07bd aa16 3dbf
00000190: e598 873d 67b5 273f d01b 5ebf 30f0 4cbe
000001a0: ada9 6ebd 044f 9b3d 4e7d efbd f4ca 093f
000001b0: 58f7 203d 756e 01bf 6efc 03be 7826 6d3e
000001c0: 9997 073e 2d49 33be f222 60bd 9713 483d
000001d0: d63b 29be 0524 86bd 892c 07be bc73 c5be
000001e0: b99d 3a3e cab2 2a3b e627 cb3c 2549 193e
000001f0: 1353 22bb ae4f 11be 70f4 56bc e8e6 9dbc
00000200: dea3 043e d141 3a3e c180 05be 21bb 1f3e
00000210: cd2f 713d eada 9f3d 7636 39be 8b6d a7bc
00000220: 4bd5 ef3d 91e8 90bb ea61 20be b19c 4b3c
00000230: 6cbf 84bb 271b 2ebd 67bc a63d 3570 d93d
00000240: 23ad 0f3e 3c34 5f3c 334d 1b3d 1aad fe3d
00000250: 0fa3 2dbe eae2 bdbe 54f1 5e3e 5a80 613e
00000260: 31cb 203e 569c 593c 7815 a0bd 47d7 473f
00000270: 6b53 a1bd 49e3 32be 305a 54be 05ea 903e
00000280: a304 a2bc be9c df3d d894 de3c b699 023e
00000290: d6b7 64bd 5edd bf3c 6b11 62be deda d6bd
000002a0: 2b59 27bc 3189 343c a3ef 073e c7dd 6b3e
000002b0: 7ec3 4ebc 6974 053e df89 05be 40e7 ffbd
000002c0: bb5a a6bc 18b1 95bd 33fc a4bd f918 a13e
000002d0: 7465 6bbd 71b7 603d e378 06be b8e2 26be
000002e0: 9e15 9c3e 8b4a 923d 93c7 673e e61f 743d
000002f0: 8301 acbd b5d1 213e a323 2f3e b832 d9bd
00000300: 3504 783d 2ff9 613d 915c 53bd 60ca 2c3e
00000310: 3f18 23be ff00 1dbe d442 853d 437d 193e
00000320: 8a53 143c 4d1a 633d c00e 0bbe fae1 f53d
00000330: f9b6 dcbd 3324 2e3e 8acb a03d bf15 48bd
00000340: 3e5b 51bd b882 873e 5dc6 fc3e e5c2 333d
00000350: a76d 583e 86df 453e a3af 3c3e 3635 063f
00000360: 76f9 0ebe f4cc 623c edd8 37be 7147 56be
00000370: 2496 81bd 86b2 a43e e259 11ba 57ae fbbd
00000380: 359e b83e f276 4e3d 5689 a6bd d3e7 113e
00000390: 8fd9 d43d 1f37 fbbd f64e aabd e17f 0e3e
000003a0: 06a3 99bd aac3 603e 5b7f 52be bee6 053e
000003b0: 247d 6ebc c7d3 3d3e 4cec 843e 9e2b be3e
000003c0: 9566 1a3e 8e84 593d bb11 043d 0250 d7bd
000003d0: c9cf d03d 6175 4f3e f658 31bd c12b 0fbe
000003e0: 679e 68bd 7c08 4abe 30d9 12bc 671a 943c
000003f0: dc6e 243c 5255 f73d 2c9c 293c 4d09 47bd
0.172197 -0.0019202074 0.19141099 0.109150186 0.2183282 0.12311645 -0.05239332 -0.050967548
-0.1841295 -0.0441375 0.02203296 0.11378927 -0.12075612 0.08811395 -0.050554607 -0.0742623
-0.118445985 0.008401247 0.011103637 0.11199736 -0.056083076 -0.09215714 0.074456625 -0.07768594
0.044133984 0.19112568 -0.0036181086 0.13559465 -0.060309164 0.39872187 0.059514947 0.10533301
0.085396506 -0.1097284 -0.048590258 0.14896366 -0.11722758 0.026338337 -0.09677585 -0.15231244
-0.04844803 -0.09274077 -0.086029895 -0.09568472 0.057474975 -0.17160751 0.15697815 0.09099053
0.13402815 0.07668973 0.10250871 0.0117253 0.11808793 -0.06496824 0.17595074 0.013629001
0.15317293 -0.14730354 -0.07186906 -0.2869966 -0.078697614 -0.06541188 -0.062464464 -0.08981526
0.0038993347 -0.028359242 -0.10458658 0.08638698 -0.10601118 -0.17204532 0.014755609 0.26127303
-0.2604156 -0.22023998 -0.112127654 -0.106575124 -0.045368396 0.036357604 -0.15533112 -0.20681722
-0.0177574 0.14222245 -0.11364218 0.14962132 -0.11887648 0.16091733 0.12259682 -0.1824997
-0.11505432 -0.21287218 0.5409728 0.0043614875 0.2531219 -0.033153854 -0.44553143 0.027007286
-0.19845188 -0.19631463 -0.03300457 -0.7386271 0.06620959 0.65511173 -0.8676119 -0.200135
-0.058267284 0.075834304 -0.11693822 0.53825307 0.039298385 -0.5055917 -0.12889263 0.23159206
0.13241424 -0.17508383 -0.054720826 0.048846807 -0.16526732 -0.06549839 -0.13200583 -0.3856486
0.18224229 0.0026046508 0.024799298 0.14969309 -0.0024768754 -0.14190552 -0.013119802 -0.019275144
0.12953135 0.1818917 -0.13037397 0.15598728 0.058883477 0.078054264 -0.18087181 -0.020437976
0.11710604 -0.0044222553 -0.15662351 0.012427495 -0.0040511396 -0.042506363 0.08141404 0.10617105
0.1403089 0.0136232935 0.03791542 0.1243536 -0.16956733 -0.37087184 0.21771747 0.22021618
0.15702511 0.013281902 -0.07816595 0.7806286 -0.07877239 -0.17469515 -0.20737529 0.28303543
-0.019777602 0.10918568 0.027170584 0.12753949 -0.055839382 0.023420986 -0.22076957 -0.10490964
-0.01021413 0.011019037 0.13275008 0.2303382 -0.012619851 0.13032688 -0.13040875 -0.12495279
-0.020306936 -0.073091686 -0.08055916 0.31464365 -0.0574698 0.054862443 -0.13132052 -0.16297424
0.30485243 0.07143124 0.22634725 0.059600733 -0.08398726 0.15802653 0.17103438 -0.10605377
0.060550887 0.05516928 -0.05160195 0.16874075 -0.15927218 -0.15332411 0.06506887 0.1498919
0.00905312 0.055445004 -0.13579845 0.12005992 -0.10777087 0.17005996 0.07851322 -0.048848864
-0.051112406 0.26466918 0.4937009 0.043887038 0.21135579 0.19323549 0.18426375 0.52424943
-0.1396235 0.01384281 -0.17953844 -0.2092569 -0.06327465 0.32167453 -0.00055447046 -0.12289112
0.36058202 0.050406404 -0.081316635 0.1424859 0.103930585 -0.12266373 -0.08315842 0.1391597
-0.075017974 0.2194964 -0.20556395 0.13076302 -0.014556203 0.18537818 0.2596153 0.37142652
0.15078194 0.05310493 0.03224347 -0.10513307 0.10195882 0.2025962 -0.04329773 -0.13981535
-0.05679169 -0.19729799 -0.008962914 0.018078996 0.010036197 0.120768204 0.010352176 -0.048592854

Nnet.Hidden_layer_2.bias f4 [30]
00000000: 5848 2abe 4b8d ef3c 0752 a7bd 2982 f4bc
00000010: 6358 09be 85f0 363e c611 d0bb 7692 b93d
00000020: 9b2e 283e 7c21 9f3c 5d8f dcbd 3a05 473e
00000030: 19d3 fc3d 4743 14be 7d87 383d 350a 943d
00000040: 29e9 363e b170 2a3e 92e7 abbd 4b5c d93d
00000050: 02bc 143e 96f7 633d 5661 c13d 3ba4 e73d
00000060: a734 21be cbde 3bbd 1968 a3bc 7152 2c3e
00000070: 28e2 2b3e fddd d53d
-0.1662916 0.029242178 -0.08169942 -0.029847221 -0.13412623 0.17865188 -0.006349775 0.09061138
0.16424029 0.019425146 -0.10769532 0.19435588 0.12344951 -0.1447879 0.045051087 0.07228509
0.17862381 0.16644551 -0.08393778 0.106133066 0.14524844 0.05565604 0.094423935 0.11310621
-0.15742742 -0.04586677 -0.019947099 0.16828324 0.1678549 0.104427315

Nnet.Hidden_layer_3.weight f4 [30, 30]
00000000: d016 0e3e 66d8 123d 3918 04bd c160 c83d
00000010: 1297 f6bc 9a27 81bd 0315 1bbe 9385 b13c
00000020: 6735 e8bd cadb ec3d f798 2abe 6302 2fbd
00000030: df68 e33d fc44 b73c c2ff 9cbd 5837 143d
00000040: 61a2 2cbc c268 173d 9e8b abbc 24ca 043e
00000050: e86b b03d 8de4 6abd ffc8 a9bd 0b08 a33d
00000060: 1c04 1cbe d26d 08be bee6 d6bd 5923 99bd
00000070: 1313 333c 67a6 2abb a4cc 303e 9eef cdbc
00000080: 23f5 07be 2a3d 20be eb05 403d 7601 8fbd
00000090: b7ad 223d db7c 27bd 2207 13be 028b abbd
000000a0: c181 1fbe 76b2 503d 125d 563d ea0b c83c
000000b0: 1f01 d53c 4992 c4bd b5dc 80bd fa02 083e
000000c0: 34bf 013e 3b64 30be e274 143b bc14 243d
000000d0: 7355 f4bd 9119 ac3d 5916 2dbe 6f2e 6a3d
000000e0: a357 97bd 9e98 03be a401 063e 97ab c03c
000000f0: aa0b 263e 3ec2 d8bd ce44 59be 1afd 513c
00000100: 7d5b 73bd 5e7e 22be 38f9 223e 223b 273e
00000110: 8687 cd3d 834c 343e 1ffc 26be c9ca ef3d
00000120: 2df3 923c 60c1 48bd bdae 1f3d e533 a3bc
00000130: f088 d23d 6b7a 44bd b2e6 32be 0ac4 053e
00000140: 254e d03d 5145 bc3c a15c 20be 9543 133e
00000150: acf1 2f3d 85ef 58be 7c19 9e3c 3fdf d3bd
00000160: 6d66 3f3e b652 a33d 91e4 cd3d 49e1 e73d
00000170: 27ee 813d b596 b5bd bfa8 d9bd c5fe d8bd
00000180: 19b2 a8bd fb4b adbc 82f9 a93d 77da 363b
00000190: 4ebc b43d f92f 8f3d 683d 10be 7af8 e53c
000001a0: 2959 08be 0d97 453e efcc 783d da73 303e
000001b0: 5989 d13d 99d4 97bd 7be8 a93d 9b6d 8e3d
000001c0: 706e 0abe fe03 00be aa0f 91bd 8fff f53d
000001d0: e001 443e 9dd5 d4bd df85 dbbd c96f 073e
000001e0: 767d ab3d d13a cbbb 0d97 1d3d e101 2fbe
000001f0: a93b 093e 5c76 1ebe 36e6 78bd db27 b3be
00000200: 5766 18be 8a0b c0bd 1fa1 f9bd 008e fd3c
00000210: 6d66 91bd 29d5 213e e503 af3e 8bd3 c93d
00000220: f6cc 333e 4992 3f3e 6c1e 9cbd da9e de3c
00000230: 3975 1abd 2156 533d e60c 8f3d 5f5c 903d
00000240: 40a0 e8bd 6fb6 da3d f266 fc3c ed6a 01be
00000250: c3a8 12be fa2f f63d 8b74 ba3c 46df 28be
00000260: 5daf 123d 0a77 0abe b71b 103e 3f4c 4cbd
00000270: 3740 0dbe 8285 51be 49f0 193e d193 e03b
00000280: 2a93 343e 9f73 be3d baad e6bd e251 1fbd
00000290: cb1c 003d 9127 db3d bf75 4fbd 30c7 4ebe
000002a0: 9a79 d9bd 1bb2 0a3e 2458 01bd 4e45 5abc
000002b0: d90f 073e 1e68 1cbe 8a7d 4a3d d9e6 1dbe
000002c0: 368a 0b3e 18c6 01be a4e3 073e 406b 0f3d
000002d0: 83c7 243e 4cd0 2fbd 541a cbbd 7c65 c0bd
000002e0: c1eb 51bc 7eb9 07be b3c0 51bd 4c93 3bbe
000002f0: ba61 9ebd 75fc bd3c 585e a93d 2883 343e
00000300: ca42 163d cd5f 7b3d 315a 913d d96b ecbd
00000310: 06c5 88bd 1f99 15be 19bb 923d b3c1 fdbd
00000320: 3d0f 10bd d67d 64bc cda1 383e 05ce 0a3e
00000330: f987 d53d 62bd ab3c db6b 24bd 6be9 2cbe
00000340: 66ea dcbc 63d4 023d 3827 9c3c a5b7 acbd
00000350: 7a22 0cbc 0de7 96bd e351 dbbd 2840 36be
00000360: 4fcf 4b3d 665a b6bd eabd 7b3c dbbe 143e
00000370: aab6 103e 980c 9b3b 504a 22be 2fac 693e
00000380: d2f5 d83d 9d8b 14bd 9ad1 bd3d 7455 07bd
00000390: 0e00 86bd 8e7c 233e 7894 433d d5b8 0a3e
000003a0: bdd4 adbd 1330 d3bd 96b6 703d ece2 81bd
000003b0: 2f17 fb3d 6566 bfbd e9fd 053e 0fed cc3c
000003c0: 4cd2 b23d 292a ccbd 7600 8b3d d0cf c63d
000003d0: 86d1 6c3d 8910 63be 4867 6cbe 249e 2cbe
000003e0: a569 d43d e468 84bd 976a 06be 53e5 2dbd
000003f0: 4e0b e0bb a998 a83d 7897 38be 9e7d 23be
0.1387589 0.035850905 -0.032249663 0.09784079 -0.030101333 -0.063063815 -0.15144734 0.021670138
-0.11338311 0.11565359 -0.16659914 -0.042726886 0.11103987 0.022371762 -0.076659694 0.036185592
-0.010536761 0.03696514 -0.020940598 0.12967736 0.086143315 -0.05734687 -0.0829029 0.079605184
-0.15235943 -0.13323143 -0.10493229 -0.07477445 0.010929841 -0.0026039125 0.17265564 -0.025138672
-0.13277106 -0.15648332 0.046880644 -0.069827005 0.03971645 -0.040890556 -0.1435819 -0.08376123
-0.15576841 0.050951444 0.052334853 0.024419744 0.026001511 -0.09598214 -0.062920965 0.13282385
0.12670594 -0.17225735 0.0022652675 0.040058836 -0.11930361 0.08403314 -0.16903056 0.05717319
-0.07389762 -0.12851188 0.13086563 0.02351932 0.16215387 -0.10583924 -0.21217653 0.012816692
-0.059413422 -0.15868518 0.15915382 0.16331151 0.10035615 0.17607312 -0.16307114 0.117086
0.01793822 -0.04901254 0.038985003 -0.019922206 0.10280025 -0.04796831 -0.17470816 0.13063064
0.10171155 0.022982271 -0.15660335 0.14381249 0.042955086 -0.2118512 0.019299261 -0.10345315
0.18691416 0.0797476 0.10053361 0.113222666 0.06344252 -0.08866636 -0.10627889 -0.105954684
-0.082370944 -0.021154394 0.08299543 0.0027901211 0.08824979 0.06991572 -0.14085925 0.028072584
-0.13315262 0.19295903 0.060742315 0.17231694 0.10231275 -0.07413597 0.08296295 0.06954499
-0.13518691 -0.12501523 -0.07083066 0.120116346 0.1914134 -0.10392306 -0.10718893 0.13226236
0.08373539 -0.00620208 0.03847413 -0.1709056 0.13401665 -0.15474838 -0.06076642 -0.34991345
-0.1488279 -0.09377201 -0.121889345 0.0309515 -0.07099614 0.1580397 0.3418266 0.09854802
0.17558655 0.18708147 -0.0762299 0.027175356 -0.03770945 0.05159581 0.06984882 0.070488684
-0.1135869 0.10679328 0.030810807 -0.12638445 -0.1432219 0.120208696 0.02276065 -0.16491422
0.03581177 -0.13521972 0.14073072 -0.0498774 -0.13794027 -0.20461085 0.15033068 0.0068535586
0.17634264 0.09299397 -0.112636045 -0.03889645 0.03127746 0.10700906 -0.0506494 -0.20193172
-0.10618897 0.13544504 -0.031578198 -0.013322188 0.13189639 -0.15274093 0.04943613 -0.15420093
0.13626942 -0.12673223 0.13270432 0.03501439 0.16091733 -0.042923257 -0.09917131 -0.093943566
-0.012812556 -0.13254353 -0.051209163 -0.18317908 -0.077334836 0.02319167 0.08269948 0.17628157
0.03668479 0.06137066 0.07097281 -0.11544008 -0.06678204 -0.14609192 0.07164592 -0.12390461
-0.035170782 -0.013946017 0.18030472 0.13555153 0.10426325 0.020964328 -0.04014192 -0.16885917
-0.026967239 0.03194083 0.01906167 -0.08433465 -0.008553142 -0.07368288 -0.10708978 -0.17797911
0.04975825 -0.08903961 0.015365103 0.1452593 0.14132181 0.004731726 -0.1584866 0.22819589
0.105937615 -0.036265958 0.09268494 -0.03304048 -0.06542979 0.15965483 0.047749013 0.1354707
-0.08487842 -0.10311904 0.058767878 -0.0634211 0.12260281 -0.09345702 0.1308514 0.025015382
0.08731517 -0.09968979 0.06787197 0.09707606 0.057817005 -0.22174276 -0.23086274 -0.16857201
0.103717126 -0.06465319 -0.13126598 -0.04245503 -0.006837285 0.082322426 -0.1802653 -0.15965888

Nnet.Hidden_layer_3.bias f4 [30]
00000000: 5f49 3ebd d53d 27bd 506c 4dbd f3b7 28be
00000010: 218e 163e 705a c93c 8374 1e3d 334a 413d
00000020: 5f9e 2b3e a9de 3ebc 6e64 323e 0886 bcbd
00000030: c0c0 71bd 471e e0bd 826f e8bd 045d bdbc
00000040: 3dfd 143e 6f88 1abe 2eb6 08be de82 3a3d
00000050: 6c98 d0bd 6bf0 1b3e 2ab9 13be 2db0 353e
00000060: 9209 2eba f185 dabd 8b7c 4fbd 43a9 893d
00000070: 6a18 eb3d 1b89 a5bd
-0.04645669 -0.040830452 -0.050152123 -0.16476421 0.14702655 0.024579257 0.038685333 0.047189903
0.16759633 -0.011649766 0.17421123 -0.09205252 -0.05902171 -0.10943275 -0.113493934 -0.023115642
0.14549728 -0.15091108 -0.13350746 0.04553496 -0.10185322 0.15228431 -0.14426103 0.17742987
-0.00066389993 -0.106700785 -0.050655883 0.06721737 0.11479266 -0.080827914

Nnet.Hidden_layer_4.weight f4 [30, 30]
00000000: d175 983c 1b36 27be 49cf 19be 7a66 b93d
00000010: 3ab0 bcbd 21a1 bebd c203 e5bd d168 eb3d
00000020: a73d ecbd c7ee 7d3d c962 093e f3d9 1d3d
00000030: bcdd 0abc 3792 ee3d 07e0 86bd 357e f8ba
00000040: 652c 69bd 574e 303d 8af9 cbbd 496e a9bd
00000050: c2b4 39bd a160 0a3e 44f4 e63d d817 1ebe
00000060: b96f 32bd 22b3 57bc eeea f73d 429a 31be
00000070: e004 b83d 44ab 8dbc 01da 023e 49a3 3e3e
00000080: 6e46 293e 65b5 6ebd 0e6a 8cba a2ea b63d
00000090: 4ca7 05be 9b81 4f3e 4906 e6bd 2cd9 7ebd
000000a0: f783 f5bc 9ade 903c 6ced 633d faa9 10bc
000000b0: 7fa3 06be f9ed fc3b 740a c13d 5a5f cdbc
000000c0: 8c30 303e 21f2 e73c 2709 3b3b 496d 8e3c
000000d0: 8958 273e 668c 1d3e 6b05 cdbd 33ba 743d
000000e0: 5ab9 d1bd 67e9 b73c 1e7f 083e 394c a3bd
000000f0: d1c5 1a3c 4b49 04bd a010 533d 9a73 153e
00000100: 4644 17be 97e6 33be 72c6 013c f930 f63c
00000110: bb3a 13be 491c 8fbd 6d35 3d3e abf3 843c
00000120: 500a 05be cf34 c93d 35b5 ba3b ca53 b4bd
00000130: 46e5 323e 452a 483e 931d cc3a 2a90 9c3e
00000140: 1a6f 0d3e 64df 173d 089b 78be 1c9a 1cbe
00000150: 8fca ac3d 37ab b33d 7401 2a3d f5ea 34bd
00000160: 6ff6 43be 028d 91bd 2898 cabd ad96 b5bd
00000170: aef3 563c 15fa 73bd fba3 1cbd 5c95 c83d
00000180: 530c d9ba e8a6 963d 43a9 23bc 3286 2c3e
00000190: d515 793c 2b4f ed3c daf5 bebb 6dfa 2e3e
000001a0: b76d cf3d b89f 5ebd 6ef9 cbbd d3f2 6dbd
000001b0: e295 f6bd fef0 1cbd ca40 3abe cb4a 983c
000001c0: 5ea5 a23c c1f6 af3d f368 12bd cbf9 1cbd
000001d0: ab22 a03d 6f7f 88bd f78b 1fbe 5b86 d6bb
000001e0: b659 a93d 07d2 dc3c 5c85 333e 93c5 253e
000001f0: b6d1 6cbd 1ae7 f7bd 719f fdbd c6ff d33d
00000200: 6941 1e3e 6e24 5dbe f496 81bd ce4f 4abc
00000210: ebb0 073e 366a eabd 8afb 43bd 0ea8 41bc
00000220: 5d32 63be 0bb1 3ebd fffb 493d 10ad 003e
00000230: dc2d ddbc fe36 aa3d 3a83 3fbe 4a70 0abe
00000240: df49 893d b57c 013d c3a9 46bd 70d6 33be
00000250: 92ed a1bd 195f c03d 66ec ecbd e32d 2d3e
00000260: 5602 723c 2e20 713d 96aa 2c3c a0a5 77bc
00000270: 439f 923d fbfe 423d ba77 f33d f85a 9cbd
00000280: 412e 4d3e 5371 febd 22e9 a43d e32b e5bd
00000290: 2239 693d d2c4 58bd 7f6d a73d 0d77 733c
000002a0: 9e9d 3fbd d70d 393e 5272 ce3d d349 093d
000002b0: 3c01 92bd d24c 0f3e ae81 a03c 8925 6cbb
000002c0: a108 3dbd 7864 42be a5a8 0bbe 557d a9bd
000002d0: 4d7b bcbd 7bfd 12be bec7 f2bd 2832 c9bc
000002e0: 6b17 b53c 6ff8 a83d 1694 97bd c608 91bd
000002f0: 3f19 c43d b58d 44bd da79 cdbc ee06 43be
00000300: d40e 04be c208 a0bb b2d7 793b 9541 0cbe
00000310: 133b 873d 82f1 36be fc93 043e 1454 3bbe
00000320: 5d12 50be 6e1e 803d a2b6 80bd ba0f fdbd
00000330: 3194 c53d 932d 39be f32c 7ebd e68c 283e
00000340: 4bd3 413e 675f 063e bf75 32be dbc7 1d3d
00000350: ee24 9c3d 0bd0 81bd c5bf e93d deaf db3d
00000360: 5cf8 f6bd fa75 f6bd bf62 97bd 5b68 c7bd
00000370: 7cfc fdbb 66b8 ca3d 1df1 f3bb 2f36 113d
00000380: 174e 9dbc 4a8b 12bd cda3 8ebc f7bd 38bd
00000390: 7936 883d 5f3e 49be 374f 223e 1591 6fbd
000003a0: f302 d0bc 7110 c6bd ca05 693e 5d0b 26be
000003b0: 5f88 a3bd 1905 833c 86d7 8e3d 75f7 8cbd
000003c0: c081 e53b c4e5 48be f6a7 103e c30b 2cbe
000003d0: c4c2 ef3d 9aae 55be 7486 81bd 2f7b 1abe
000003e0: d578 25bd 1c35 503e 234e dbbd aa73 9b3d
000003f0: 35d3 5f3d e091 203d 049f 403d 0285 a6bc
0.018610867 -0.16329233 -0.1502048 0.09052749 -0.092133 -0.09308077 -0.11182357 0.114946015
-0.11535197 0.061995294 0.1341659 0.03853793 -0.008475717 0.11648982 -0.065856986 -0.0018958511
-0.056927104 0.04304346 -0.09959705 -0.08272988 -0.0453384 0.13513424 0.11277059 -0.15438783
-0.04356358 -0.013165267 0.12105356 -0.17344001 0.08985305 -0.01729358 0.12778474 0.18616976
0.16530773 -0.05827846 -0.0010712759 0.089314714 -0.130521 0.20264284 -0.112316675 -0.06221883
-0.029970152 0.01768427 0.055646345 -0.008829588 -0.13148306 0.0077187982 0.09425822 -0.025069881
0.17206019 0.028313698 0.002853939 0.017386096 0.16342367 0.15385589 -0.10010799 0.059747886
-0.10240431 0.022450162 0.13329741 -0.07973523 0.009446577 -0.03229646 0.051529527 0.1459488
-0.14772138 -0.17568432 0.007920848 0.030052649 -0.14377873 -0.06987817 0.18477412 0.016229471
-0.12992215 0.098245256 0.005697871 -0.08805044 0.17470273 0.19547375 0.0015572779 0.30578738
0.13811913 0.037078276 -0.2427789 -0.15293163 0.084370725 0.08772891 0.041505292 -0.044169385
-0.19136976 -0.07106973 -0.09892303 -0.0886663 0.013119621 -0.05956467 -0.03824232 0.09794113
-0.0016559459 0.073560536 -0.009989086 0.16848066 0.015202959 0.028968414 -0.0058276476 0.17087717
0.10128348 -0.05435154 -0.09959684 -0.058092903 -0.12040307 -0.038315766 -0.18188778 0.018590352
0.019854244 0.085919864 -0.03574462 -0.03832416 0.078191124 -0.06664931 -0.15580736 -0.006546778
0.08269064 0.026955618 0.17531341 0.1618865 -0.057817183 -0.12104626 -0.12383927 0.10351519
0.1545464 -0.21595928 -0.0632762 -0.0123481285 0.13251083 -0.114460394 -0.04784731 -0.0118198525
-0.22187181 -0.04655556 0.049312588 0.12566018 -0.026999407 0.0831127 -0.18702403 -0.13519397
0.06703543 0.03161307 -0.04850174 -0.1756227 -0.07906641 0.093931384 -0.11568527 0.16912036
0.014771065 0.05886858 0.010538718 -0.015115172 0.07159283 0.04760645 0.118880704 -0.076345384
0.20037176 -0.12423959 0.08052279 -0.11190011 0.05693925 -0.052922077 0.081751816 0.014859927
-0.046781175 0.18071686 0.100803986 0.03351767 -0.07129142 0.13994148 0.019593086 -0.0036033115
-0.046150807 -0.18983638 -0.13638552 -0.08275858 -0.09203205 -0.14354508 -0.11854504 -0.02456005
0.022105893 0.0825051 -0.07401292 -0.070817515 0.09575128 -0.047986705 -0.025082517 -0.19045612
-0.12896281 -0.0048838565 0.003812295 -0.13696893 0.066030644 -0.17865565 0.12947077 -0.18293792
-0.20319505 0.06255804 -0.062848344 -0.12356515 0.09647406 -0.18083791 -0.062054586 0.16459998
0.18928258 0.1312233 -0.17427729 0.038520675 0.07624231 -0.06338509 0.1141353 0.107269034
-0.120590895 -0.12034221 -0.07391881 -0.09736701 -0.0077510457 0.098984525 -0.0074445144 0.035452064
-0.019202275 -0.035777368 -0.01741209 -0.04510304 0.06651015 -0.19652699 0.1585053 -0.05848797
-0.025392031 -0.09671105 0.22756115 -0.16215272 -0.07984995 0.015993642 0.069747016 -0.06883136
0.007003993 -0.19618899 0.14126572 -0.16801362 0.117070705 -0.20867386 -0.06324473 -0.15086053
-0.040398438 0.2033276 -0.10708263 0.075904205 0.054644782 0.039201617 0.04702665 -0.020327095

Nnet.Hidden_layer_4.bias f4 [30]
00000000: b213 5a3d 0961 233e 8426 383e d26c 3a3d
00000010: e2bf 0c3c 4b93 33bd 4769 8a3c 90d7 9c3d
00000020: b709 083e 0473 1cbe e57a 9c3c b807 ecbd
00000030: f027 aa3d 8338 acbd 2f4b 10bd 964a a23d
00000040: 991d 1bbe 534b 83bd 4997 e1bd 1faf 30be
00000050: b956 053e 2dfb fc3d 4288 0f3e 5496 d4bc
00000060: 4595 da3c 1869 b03d 1c52 c1bb 7bce 0bbd
00000070: 8906 25be d5ba 293e
0.05324144 0.15954985 0.17983443 0.045513935 0.00859067 -0.04384164 0.016895903 0.07658303
0.13284956 -0.1527825 0.01910157 -0.1152491 0.08308399 -0.08409216 -0.03522795 0.079243824
-0.1514801 -0.06410851 -0.110151835 -0.17254303 0.13021363 0.123525955 0.14016822 -0.025950588
0.026682505 0.08613795 -0.005899681 -0.034132462 -0.16115774 0.16575177

Nnet.Hidden_layer_5.weight f4 [30, 30]
00000000: 9310 9e3d 2d6e ab3d cf79 1c3d 28de f8bd
00000010: 5e09 02be 3e7c d6bd dbb1 1abe b53e 083e
00000020: d0cc 07be 51be 243e 71ef 7e3d 6500 cdbd
00000030: dd14 3fbe ade6 22be 4031 103e d953 eebd
00000040: b2ee 693d ba9b 8bbb 7d23 0f3d fe67 b43d
00000050: cfcd cabd 10e2 a7bd 39bd 993c 338e c03d
00000060: 2c0b 453e 1aa9 2a3e 2954 3abe 4096 ddbd
00000070: b0ea 023e d095 2c3e 45c4 fc3d b1ed 543d
00000080: 98c3 4dbd 3726 1bbe a7c7 343d 8fc3 a93d
00000090: 1482 db3c da00 3a3e 90eb e13c 2339 a9bd
000000a0: 6cbf 0e3d 58ed 783c fd42 8b3d f0d5 4fbd
000000b0: 4357 a7bc 07d4 493d aeb3 c83c 6358 2fbd
000000c0: ff3d 0dbe 90aa 25be 7ada 07bd dfad 68bd
000000d0: a893 633d bc13 233e 049d 8cbb 2b00 e53b
000000e0: 9869 2c3e ea51 1bbe 5189 213c 4a9b 0fbe
000000f0: 1fff 16be b145 0ebe b520 033e 3b0b fd3d
00000100: 8406 3e3d 9f3a 73bd 4ebc 88bd 4d18 fcbc
00000110: c286 023d 24a7 273e c5f8 26be dd03 423e
00000120: 81ce 89bd ffac 62bd 7d33 e13d fd38 153d
00000130: f99c 99bc 26e5 9ebd 4a4a 39be 3382 29be
00000140: 6e92 173d a861 123e 1e1a b6bc e86d e3bd
00000150: cd79 cdbc a0ab 213b bbfa abbd 4d15 003e
00000160: 5c3e 273e 8b69 1c3e f08f 5fbd cb2f 8a3d
00000170: ed94 c7bd 7641 dfbb e5e2 8e3d f531 0bbe
00000180: 7b7c 05bd f7e0 3c3e 6fc9 4c3e 2c6b 1dbe
00000190: 8996 16bc 6c4f fd3d 47ee 6ebc 80b8 233e
000001a0: 73e9 13be 818e cd3d 6359 873c f729 b5bd
000001b0: 1389 d1bd 258b 0f3e 5ece f3bd a407 50be
000001c0: 523e 0fbe e737 713c e731 54bd e908 543d
000001d0: e859 bfbd 30bb 043e 25b0 a03d c4ec 073c
000001e0: d698 34be 93b4 823d b393 ac3d ada7 65be
000001f0: 51d9 7b3d cae5 c2bc ef78 bdbd a51e 653e
00000200: 0b4d f0bd abaf 3b3e a34b 363e 4aac c7bd
00000210: 5b86 49bd ccde 1a3e a4b2 22bd 5cde d9bd
00000220: 0802 42be 334d 0bbe dc0f a53a 6ab6 1cbe
00000230: 37e7 95bd 759c 953c 466f 2a3e e793 0bbd
00000240: 3b3b 11be 885f c5bc 85ae 813c 1a26 1ebe
00000250: b10f fc3d bdc4 443e f3ee 073d ab5f 013d
00000260: 4fa2 f0bd e11c 4bbb 219b 0c3c 26c7 be3d
00000270: 34c0 c93d 2305 8c3d 660d 723d 8ade 063c
00000280: 7d80 13bd 9917 18bd 8dbe 75bd c494 52be
00000290: 4373 fd3c e67a b13d 9492 24be e4cd e23d
000002a0: d477 ebbd bf49 51bc e4e7 f83d 9765 c2bd
000002b0: 2ea2 9e3c 203c 293e e877 a6bd b255 bf3c
000002c0: e8a2 183e 9afa c6bd 29ad 223c 86c9 2a3e
000002d0: 56e0 0cbe 2a36 0ebe 5e0f b43d b3d3 d7bc
000002e0: 3013 a53c fd94 b1bd c920 5abd fa5f 7b3c
000002f0: f189 fbbd 2b90 65bd eb71 23be dc23 403d
00000300: 7249 c3bc e8fe 97bd 1e6f 43be dc11 563e
00000310: 24cc e03d 46f2 613b d443 17be f714 9bbc
00000320: d369 0d3d ec41 a6bb e569 e03d 082d cfbd
00000330: 92e7 21be dc22 953d 447d 213e 3a40 43bd
00000340: 5483 5abd 3409 3fbe c221 f13d 5542 1bbe
00000350: 196b 3fbe 601f cabd 1044 1bbe 56af 1c3d
00000360: f98c 203e abc0 bbbd a220 f13d 8a2e 3d3d
00000370: bc8f d2bd abba 053e ba91 a53d c659 b2bd
00000380: 244e f6bd bedc 29be fd68 fcbb 17ff 0b3e
00000390: 7ffc dbbd 6af5 aa3d 7c87 173e 9241 343c
000003a0: bf13 efbd 0ba8 80bc 6ce8 bc3d eb96 1ebe
000003b0: 8d5c 00bd d10b 453c 89bf d7bd 7898 023e
000003c0: 13d2 f1bd a9ee 15be bfb5 56be c61a acbd
000003d0: 6c9a 2d3e f51c 92bd dd01 e8bd 572b a73d
000003e0: 5baf ebbd d601 e73d 5ebd 773e 13d4 ba3d
000003f0: 819f 0d3e fd2e cbbd 9b92 30be 7419 733d
0.07718005 0.08370624 0.038202103 -0.12151748 -0.12698886 -0.10472916 -0.15106909 0.13305171
-0.13261724 0.16088225 0.062240068 -0.10009841 -0.18660302 -0.15908308 0.14081287 -0.116370864
0.057112403 -0.0042605074 0.034945954 0.088088974 -0.09902536 -0.08197415 0.018766986 0.09402122
0.19242543 0.1666607 -0.18196167 -0.108196735 0.12784839 0.16854024 0.12342123 0.051984493
-0.05023536 -0.15151297 0.044135716 0.08289253 0.026795425 0.18164387 0.027578145 -0.08262851
0.034850523 0.015193306 0.067998864 -0.050741136 -0.020427352 0.04927447 0.02449974 -0.0428089
-0.13793181 -0.16178346 -0.03316734 -0.05680644 0.055560738 0.15925497 -0.0042911787 0.0069885454
0.16837156 -0.15167966 0.009859399 -0.14024082 -0.14745758 -0.13893773 0.12805445 0.12355658
0.046392933 -0.059382077 -0.06676541 -0.030773306 0.031866796 0.16372353 -0.16305836 0.18946786
-0.067288406 -0.055340763 0.10996149 0.0364313 -0.018751608 -0.0775855 -0.18094745 -0.16553573
0.03700488 0.14295065 -0.02222925 -0.11104947 -0.025082493 0.0024668947 -0.083974324 0.12508126
0.16332382 0.15274636 -0.05458063 0.06747397 -0.09745202 -0.0068132235 0.069768704 -0.13593276
-0.032589417 0.18445192 0.19998716 -0.15372914 -0.009191164 0.12368664 -0.014583177 0.1598835
-0.14444523 0.10036946 0.016522115 -0.08845895 -0.10231223 0.14017923 -0.11904596 -0.20315415
-0.13988617 0.014722801 -0.051805403 0.05176631 -0.0934332 0.12962031 0.07846097 0.008296195
-0.17636427 0.06382098 0.08426609 -0.22427244 0.061486546 -0.023791213 -0.09251582 0.22374971
-0.11733445 0.18328731 0.1780229 -0.097496584 -0.049200397 0.15124053 -0.039721146 -0.10638115
-0.18946087 -0.13603668 0.0012593227 -0.1530396 -0.07319491 0.018263081 0.1664401 -0.034076598
-0.14182751 -0.024093404 0.015830288 -0.15444222 0.123076804 0.19215675 0.033186864 0.031585377
-0.11749708 -0.0030992555 0.0085819075 0.09315328 0.09851113 0.06836917 0.05909481 0.008231768
-0.036011208 -0.03713188 -0.059996177 -0.20564562 0.03093875 0.08666019 -0.1607154 0.11074427
-0.11497465 -0.01277393 0.121536046 -0.09492033 0.019364443 0.16526842 -0.08128339 0.023356292
0.14905894 -0.09715767 0.00992898 0.16678438 -0.13757452 -0.1388785 0.087919936 -0.026346063
0.02015075 -0.086709954 -0.053253923 0.015342707 -0.122821696 -0.056045692 -0.15961425 0.0469092
-0.023838732 -0.074216664 -0.19085357 0.2090525 0.10976437 0.0034476682 -0.14771968 -0.018930895
0.03452475 -0.0050737765 0.10957698 -0.10116011 -0.15810993 0.072820395 0.15770441 -0.047668673
-0.0533479 -0.18655854 0.11774017 -0.15162022 -0.18693198 -0.098692656 -0.15162683 0.03825315
0.15678777 -0.09167608 0.11773802 0.04618696 -0.102813214 0.1305949 0.08084436 -0.08708529
-0.12026623 -0.16588113 -0.0077029453 0.13671528 -0.10741519 0.0834759 0.14797777 0.011001961
-0.11673688 -0.01570513 0.092240185 -0.15487258 -0.031338263 0.012026743 -0.10534579 0.12753475
-0.118076466 -0.14641823 -0.20967768 -0.08403544 0.16953439 -0.07134429 -0.113284804 0.08162563
-0.11508056 0.11279647 0.24193332 0.09122481 0.13830377 -0.09921072 -0.17243426 0.059350446

Nnet.Hidden_layer_5.bias f4 [30]
00000000: b837 4abc ed50 72bd 999b 243e 3ce7 243d
00000010: b541 73bd 0f2e 013e 9b6b 11be c568 963d
00000020: b84b 8cbd 6382 163e 916c a13d 14e4 283e
00000030: f520 993d 8c7b 5b3c 4636 503d 2f0d 0cbb
00000040: dad8 39bd 6848 0abe 51d6 d3bc 9352 503c
00000050: e819 83bb 9c5a 11be 3a53 d33d 7da3 98bd
00000060: 345c e13d a89b 2d3e 7ef8 72bd 2901 f33d
00000070: c9a5 d43d b83f 93bd
-0.012342386 -0.059159208 0.16074981 0.040259585 -0.059388835 0.12615226 -0.14201204 0.07344202
-0.0685038 0.14698176 0.078820355 0.16493255 0.07476989 0.013396155 0.05083301 -0.0021370163
-0.04537282 -0.13504183 -0.02585903 0.012715 -0.004000891 -0.14194721 0.103186086 -0.07453058
0.110039145 0.1695391 -0.059319012 0.11865456 0.103831835 -0.07189888

Nnet.Hidden_layer_5.bias f4 [2, 30]
00000000: b2af aebd 67d8 dc3d 2f38 40be 713d cdbd
00000010: 30b4 9b3d 623b 0f3e c8fb 72bd 4081 953c
00000020: 2e11 283e ec24 c6bd 90d3 113e adf1 86bd
00000030: 2751 0fbd 0371 3abc f659 893d ec3a 5d3c
00000040: f1ee d5bd 9ec8 0b3e 5037 933d ce11 bbbd
00000050: 9996 5ebe aafd 66be a574 55be fb01 ac3d
00000060: 37b5 c5bd b0b6 eb3d 628c e5bc 611a 3a3e
00000070: 9604 333d ee03 123e 116f f2bd 05da 033e
00000080: 6256 bebd 8ecd 1d3e 7892 04bd a195 0a3d
00000090: 23e9 6c3d da28 ec3d 806b 7c3d ccf3 1a3d
000000a0: 5d86 453d 579f 88bd 52d5 babd 2cd7 f53d
000000b0: 698b 8d3c f7a3 f1bd a37c 383e c109 f63d
000000c0: b405 a1bb df5c efbd 3587 09bd eb84 523e
000000d0: 36a2 c13d bfbc 68bd 6b4d 853d 5ebd 9f3c
000000e0: 1dc7 fcbd 9170 93bc 7285 ce3d 7e3d 2f3e
-0.08529605 0.10783463 -0.18771432 -0.10021485 0.076027274 0.13987496 -0.05932215 0.018250108
0.16412804 -0.09675011 0.14240861 -0.06589065 -0.034989502 -0.011379483 0.06706612 0.013502818
-0.10445965 0.13650748 0.071882844 -0.09134255 -0.21737136 -0.22557703 -0.20845278 0.08398815
-0.096537046 0.11509454 -0.028021041 0.18174125 0.043705545 0.14259312 -0.118375905 0.12876137
-0.0929382 0.15410444 -0.032366246 0.033834103 0.057839524 0.11531229 0.061625957 0.03783016
0.048223842 -0.06671017 -0.09122719 0.120039314 0.01727839 -0.11798852 0.18016295 0.12013579
-0.00491401 -0.11687636 -0.03357621 0.20558517 0.094547674 -0.056820627 0.06508907 0.019499477
-0.12342665 -0.017998012 0.100840464 0.17113301

Nnet.Hidden_layer_5.bias f4 [2]
00000000: dd7d ab3c d01b 2abe
0.02093404 -0.16612172
